data.pth (torch, 19754 bytes, 6 tensors)

l1.weight f4 [8, 282]
-0.05861267 0.5257541 -0.289235 1.0757216 -0.70254993 0.8244821 0.17113063 0.7413283
-0.63352746 1.8610921 0.8195768 -1.3324167 -0.096654 0.7355719 -0.004560851 -1.0982398
0.7161331 0.7433543 1.1949931 0.17282207 0.66189796 0.15486793 0.51464003 1.1834611
-0.37289804 -1.1617492 -0.3943001 -0.27508748 0.35683918 0.32999018 1.0775417 0.02051389
-1.0209631 0.37018466 0.8864636 0.61872065 0.32908085 0.11875639 -0.24133752 1.3122567
-0.74070805 -0.7420183 -0.39773792 -0.8539088 -0.020750035 -0.5171318 -0.8476585 2.09435
0.13811177 0.61171883 0.17318922 -1.0717534 1.2166926 0.43251687 -0.7050195 -0.15734197
-0.02369563 -0.08718119 -0.22279644 0.42911506 -0.17055358 1.1950144 -0.14499085 0.1393816
1.5655416 2.4172091 -0.40161043 0.08906716 -1.2992973 1.4409676 0.48252538 -0.3202951
0.75140435 0.6384655 1.1616778 -0.19185178 2.069634 1.027427 -0.29878938 1.1373409
-0.7227789 0.43871883 -0.7380374 1.0022025 0.9660461 0.014485796 -1.4051728 0.41997248
-0.7066706 -0.049232986 -0.08745389 -0.7091612 0.6071545 -0.8381584 -0.7378381 -0.22986685
-1.3014961 0.64520437 1.9512951 -0.19186229 -0.05225902 -0.4623289 -0.40929538 0.062777415
-0.26970708 -0.45005465 2.089227 0.90725696 1.9841541 -0.7376332 -1.7790928 -0.7367088
-0.73822135 -0.1815504 -0.73595494 -0.2081493 -0.73416907 1.4557724 -0.39820367 0.15666083
1.8403376 0.66647935 1.5398169 1.7000204 0.81058973 0.34235832 0.45733395 -0.06478342
0.37813026 0.1211446 -0.74859565 -1.531344 -0.4973695 -0.73728144 0.21318644 1.2696619
0.75746346 0.14053506 1.033228 -0.44581 -2.1817527 1.7041734 0.3440264 -0.21164313
0.28381428 -0.56423324 0.3569851 0.12871663 -0.08334155 1.2728667 -0.8781611 -0.032784548
-0.74243677 0.7476221 0.2654144 -0.8522018 -0.33307374 0.2401879 1.628762 -0.5313588
-0.396597 0.07262415 -0.74763584 0.9963824 -0.72889745 1.1971008 -0.4205486 0.45282733
-0.14918043 1.276497 -1.3261218 -0.5059102 -0.74487096 -0.73849493 0.46808288 0.23788692
-0.85874313 -0.015291094 0.3609525 -0.24427328 -0.27667704 0.028435849 0.14798826 -0.22645749
-1.0130376 0.012096526 -0.35183084 0.020213999 1.1098341 0.68573666 1.0209149 -0.0036633336
0.44052872 -0.25231132 0.14302307 -0.746266 -1.5810287 0.64128387 1.1522284 -1.0115137
-0.66343904 2.0155396 -0.02164964 0.055673484 1.8867369 0.5939107 0.17539646 0.82639307
0.2464393 -0.11912122 0.34866765 1.1935091 -0.15462102 1.339648 0.14734034 1.2031814
-0.16065118 1.8946521 -0.35952204 1.0659348 0.35234368 0.042803373 0.46292895 0.051996298
-0.6110276 -1.0856878 -0.28317156 0.6602801 -0.7100737 -1.7169925 0.6170419 -0.32200176
-0.32975757 1.242166 -0.1005942 1.4868505 -0.47328547 -0.8915118 0.41668335 1.2352048
1.0176579 0.51616096 0.4685938 -0.5053732 -0.7978059 0.5128724 -0.014701091 -0.9354107
-1.026111 -0.16163704 -0.1931439 -0.5494956 -0.16616455 1.1510553 0.44585344 -1.2292806
00000000: d713 70bd d297 063f 9c16 94be 3fb1 893f
00000010: 50da 33bf 4211 533f de3c 2f3e b1c7 3d3f
00000020: db2e 22bf 4438 ee3f c9cf 513f a18c aabf
00000030: 88f2 c5bd 714e 3c3f 3173 95bb 1f93 8cbf
00000040: 8054 373f 784c 3e3f 89f5 983f 45f8 303e
00000050: 2572 293f b395 1e3e 73bf 033f a77b 973f
00000060: 7eec bebe 33b4 94bf b4e1 c9be 44d8 8cbe
00000070: a0b3 b63e 79f4 a83e e3ec 893f bf0c a83c
00000080: ebae 82bf d888 bd3e 47ef 623f 7a64 1e3f
00000090: 497d a83e 8d36 f33d 2f21 77be 07f8 a73f
000000a0: 0b9f 3dbf e9f4 3dbf 4ea4 cbbe c499 5abf
000000b0: fafb a9bc c062 04bf 2600 59bf d509 0640
000000c0: 2c6d 0d3e 9b99 1c3f 8458 313e 372f 89bf
000000d0: 95bc 9b3f da72 dd3e 287c 34bf 411e 21be
000000e0: 561d c2bc 0d8c b2bd c024 64be f8b4 db3e
000000f0: 99a5 2ebe 3bf6 983f 7b78 14be 0dba 0e3e
00000100: ab63 c83f 8eb3 1a40 e29f cdbe d868 b63d
00000110: 604f a6bf a071 b83f 910d f73e b8fd a3be
00000120: 095c 403f 7a72 233f dcb1 943f cb74 44be
00000130: e274 0440 ba82 833f ecfa 98be 6394 913f
00000140: 0a08 39bf c19f e03e 05f0 3cbf 2c48 803f
00000150: cc4e 773f d555 6d3c b4dc b3bf a206 d73e
00000160: 5de8 34bf 87a8 49bd 061b b3bd 978b 35bf
00000170: 7a6e 1b3f 8d91 56bf f5e2 3cbf 3762 6bbe
00000180: 6d97 a6bf 1d2c 253f 0ac4 f93f 8c77 44be
00000190: 8e0d 56bd 60b6 ecbe 2a8f d1be 7291 803d
000001a0: 0c17 8abe 906d e6be e5b5 0540 fe41 683f
000001b0: c3f8 fd3f 88d5 3cbf 50b9 e3bf f398 3cbf
000001c0: 13fc 3cbf 59e8 39be 8b67 3cbf 1725 55be
000001d0: 81f2 3bbf c056 ba3f 5ae1 cbbe b26b 203e
000001e0: 2f90 eb3f 649e 2a3f b818 c53f 459a d93f
000001f0: cf82 4f3f 9749 af3e ad27 ea3e 2bad 84bd
00000200: 4a9a c13e a91a f83d f7a3 3fbf 1503 c4bf
00000210: 37a7 febe 7abe 3cbf 8c4d 5a3e 4884 a23f
00000220: 20e9 413f 6ce8 0f3e d140 843f 3541 e4be
00000230: d6a1 0bc0 5b22 da3f 3a24 b03e fab8 58be
00000240: 1b50 913e 9771 10bf c0c6 b63e 4bce 033e
00000250: f9ae aabd 4ced a23f 2acf 60bf 1749 06bd
00000260: 5610 3ebf 2964 3f3f 65e4 873e e629 5abf
00000270: a488 aabe d1f3 753e 467b d03f 2107 08bf
00000280: c30e cbbe f8bb 943d 1065 3fbf eb12 7f3f
00000290: 0699 3abf 993a 993f 2552 d7be fcd8 e73e
000002a0: c1c2 18be 4164 a33f 5cbe a9bf 5583 01bf
000002b0: ddaf 3ebf 010e 3dbf 8fa8 ef3e a198 733e
000002c0: 97d6 5bbf 7f87 7abc c4ce b83e c622 7abe
000002d0: 9da8 8dbe 4cf2 e83c 3c8a 173e 79e4 67be
000002e0: 37ab 81bf 8230 463c 2c23 b4be d497 a53c
000002f0: 0b0f 8e3f 708c 2f3f 57ad 823f 8a14 70bb
00000300: fb8c e13e f32e 81be a474 123e 4a0b 3fbf
00000310: 265f cabf 2e2b 243f 387c 933f 4879 81bf
00000320: 24d7 29bf 9afe 0040 965a b1bc e109 643d
00000330: 9880 f13f 880a 183f 219b 333e 7f8e 533f
00000340: 955a 7c3e d4f5 f3bd 9184 b23e e8c4 983f
00000350: f954 1ebe 9679 ab3f 63e0 163e d901 9a3f
00000360: be81 24be f683 f23f 4613 b8be 8d70 883f
00000370: 6466 b43e 9752 2f3d 0605 ed3e 12fa 543d
00000380: 4e6c 1cbf d1f7 8abf ddfb 90be 1e08 293f
00000390: 64c7 35bf 69c6 dbbf 75f6 1d3f 6add a4be
000003a0: fcd5 a8be 4cff 9e3f 5504 cebd 1e51 be3f
000003b0: 7952 f2be 1e3a 64bf 8557 d53e 311b 9e3f
000003c0: 9d42 823f 2023 043f 87eb ef3e 2360 01bf
000003d0: 023d 4cbf 9b4b 033f d8dc 70bc 1377 6fbf
000003e0: 9b57 83bf 2e84 25be 84c7 45be beab 0cbf
000003f0: 0a27 2abe c855 933f e746 e43e 1159 9dbf

l1.bias f4 [8]
0.7065043 1.2889335 1.6036758 0.94471014 1.9593773 0.6176629 0.797822 1.4560308
00000000: 77dd 343f c6fb a43f 4045 cd3f 86d8 713f
00000010: e0cc fa3f 281f 1e3f 103e 4c3f 385f ba3f

l2.weight f4 [8, 8]
-1.091369 4.1218143 0.91018224 -0.050962854 2.2807035 -1.5020473 -0.26073867 -0.3092285
3.6733997 -2.2096386 1.2980309 1.5912434 1.7477299 -2.4447927 6.5722156 -0.6611981
-0.124365516 -0.28203848 -0.2667815 -0.297045 0.2173026 0.032188714 -0.096377335 -0.029671803
0.23345236 -2.6540182 1.3368835 1.294662 1.4854505 -0.61780256 0.06423603 -1.3181198
-2.3181696 -0.24071208 1.5434777 -0.9445469 2.1875262 -1.1035035 -0.21391322 0.83363575
0.07971546 -0.062304378 0.08171368 -0.0020554662 -0.13669302 -0.3135225 -0.12409271 -0.2365228
1.1755357 -1.3587838 1.5603092 4.683172 0.65822816 3.7129219 -2.1402879 4.6678267
2.1932838 -0.039066687 2.6190014 -1.5535474 1.0130342 1.1069009 -1.9319838 -1.6446558
00000000: fbb1 8bbf e7e5 8340 b401 693f 6dbe 50bd
00000010: 0cf7 1140 1643 c0bf 8a7f 85be 3353 9ebe
00000020: fb18 6b40 b86a 0dc0 e025 a63f ddad cb3f
00000030: 9db5 df3f 7c77 1cc0 974f d240 4744 29bf
00000040: 59b3 febd 5967 90be 9697 88be 4816 98be
00000050: 9384 5e3e 50d8 033d 7b61 c5bd 4812 f3bc
00000060: 230e 6f3e 6fdb 29c0 001f ab3f 7cb7 a53f
00000070: 3e23 be3f 4f28 1ebf 2e8e 833d 26b8 a8bf
00000080: e45c 14c0 3a7d 76be ad90 c53f d3cd 71bf
00000090: 6e00 0c40 9a3f 8dbf 110c 5bbe 2769 553f
000000a0: dc41 a33d e032 7fbd 8059 a73d 00b5 06bb
000000b0: 41f9 0bbe 0586 a0be 5224 febd 0833 72be
000000c0: f477 963f a1ec adbf 36b8 c73f 8cdc 9540
000000d0: a481 283f 83a0 6d40 7afa 08c0 d65e 9540
000000e0: c35e 0c40 6404 20bd b89d 2740 a4da c6bf
000000f0: 1bab 813f eeae 8d3f 3f4b f7bf 1584 d2bf

l2.bias f4 [8]
1.3851792 0.22551991 -0.18496276 -0.5916569 0.74191624 -0.14104569 0.8719831 0.4717701
00000000: 8d4d b13f b1ee 663e e166 3dbe d476 17bf
00000010: 39ee 3d3f 486e 10be 493a 5f3f da8b f13e

l3.weight f4 [81, 8]
-0.086106926 0.4126038 -0.39255917 -4.299022 -0.5384835 0.17691514 -2.2689142 0.47565043
0.5413257 -0.3784125 0.11405 -3.7953272 -0.53398937 0.082312614 -0.48761204 -4.161813
-0.84264463 0.1833232 -0.12497498 -0.60827774 -1.8846544 -0.024874508 -0.3646539 -0.72413373
-0.030871484 -0.51151943 -0.18244494 -5.296119 -7.713869 0.09958023 0.16489984 0.14370333
-0.30872035 -2.3347208 0.2831411 -1.5847892 -0.0007179927 0.20540968 0.24254218 -0.3237196
-1.530041 -1.5855575 0.24260652 -3.7327342 -0.7081246 -0.29105133 0.14328364 1.0008681
-0.7688291 -0.23867898 -0.081177495 0.5486857 0.7536167 0.039160162 -1.8840908 -0.5520391
-0.07106009 -0.68184745 0.06897762 -3.4450288 1.3076458 0.27195522 -1.2273958 -0.57679594
-0.5770255 0.076484576 0.085150406 -0.019346159 -1.6587317 0.029943734 -1.6427395 0.6189929
-0.94316596 -1.1287221 0.023032336 -0.57909167 -4.558841 0.13763335 -0.20090139 1.6634535
-0.4269878 0.059717868 0.23405434 -5.3370504 -5.1645756 0.1174666 0.46674752 -3.3751712
-4.6858134 0.66818833 0.3132195 -1.8205926 -1.7393733 -0.029771775 -0.0349266 -1.8578235
0.2983047 -1.7940029 -0.028736388 -7.0158854 -3.0865319 0.12355754 0.52190536 -1.0749714
-1.8194782 0.5156345 -0.18525037 -2.1509607 -2.9792757 0.06512576 -1.1285806 0.8279849
-3.815908 -3.0957315 0.30857828 -1.5512888 -2.6002576 -0.26936042 1.0548683 -2.7650988
-4.14067 -0.23988786 -0.01434712 -3.7120614 -2.748088 -0.09834111 0.6896091 -2.4451492
0.09666344 0.34809604 0.27324855 -4.1507683 -3.7708976 -0.19596279 -0.684324 -0.32607323
0.854771 0.045930114 -0.32811132 -3.1746116 -4.3656297 -0.14624514 -0.35777202 -3.777227
0.038630024 0.062297422 -0.28496602 -3.33481 -5.025599 0.2854018 0.045048192 -1.0134078
-2.1260493 0.7690531 0.047703955 -3.5779989 -1.677227 0.3160012 -0.3528689 -3.056528
0.0008220165 0.17148954 0.32182023 -1.8817937 -2.1161458 0.19932732 -0.52292037 -0.83162016
0.7164871 -3.3417575 -0.2414584 -1.2763209 -1.764973 0.101513 0.20749843 -3.0947113
-3.969892 0.41967964 0.15060018 -3.8572044 -2.3105228 -0.06279603 0.36245373 -0.8561928
-2.6305041 -1.2019234 0.08190009 -3.8521743 -2.8972874 0.03165245 0.89943075 -3.2056873
0.65325624 -3.716646 0.11765555 -1.4924091 -5.2230544 -0.057378203 0.5525992 -3.69754
-0.5555379 0.7906871 -0.07702294 -4.4275756 -3.9205265 -0.20871545 -1.2714695 -2.7568834
-1.1917442 0.7738318 0.028717218 -3.0544775 -1.9758474 0.34242538 -1.8341334 -0.23775698
1.1702585 -1.6912943 0.21456207 -0.26323274 -3.3071349 0.1313346 -0.48687592 -3.1910427
-0.7626496 0.5151885 0.19633144 -5.288943 -3.3946831 0.16174063 -0.008244991 -1.8487025
-2.316873 0.8944296 -0.27544758 -0.90379393 -1.5191152 0.16313031 -2.8873248 -2.1094131
-4.230897 1.0728544 -0.06534478 -4.035566 -1.0443306 0.21352288 -1.3521305 -1.7971116
-3.76065 0.5493384 -0.35247886 -2.6459363 -1.4973272 -0.23935692 -0.37599185 0.44059595
00000000: d458 b0bd ce40 d33e 84fd c8be 9791 89c0
00000010: 0eda 09bf 3e29 353e e435 11c0 7488 f33e
00000020: 5294 0a3f 48bf c1be 0c93 e93d a4e6 72c0
00000030: 87b3 08bf 8493 a83d 49a8 f9be 922d 85c0
00000040: 8fb7 57bf 14b9 3b3e e2f2 ffbd 17b8 1bbf
00000050: 5b3c f1bf a0c5 cbbc eab3 babe d460 39bf
00000060: 32e6 fcbc f0f2 02bf d9d2 3abe cf79 a9c0
00000070: 04d8 f6c0 b8f0 cb3d 81db 283e f726 133e
00000080: 9810 9ebe 116c 15c0 dff7 903e 5fda cabf
00000090: ad37 3cba ea56 523e fa5c 783e 93be a5be
000000a0: 62d8 c3bf 8cf3 cabf d86d 783e 1ee5 6ec0
000000b0: a747 35bf ae04 95be f2b8 123e 721c 803f
000000c0: fcd1 44bf 4368 74be 6340 a6bd ab76 0c3f
000000d0: 06ed 403f 6866 203d e329 f1bf 6f52 0dbf
000000e0: f487 91bd 8e8d 2ebf 2344 8d3d 5a7b 5cc0
000000f0: f060 a73f b73d 8b3e 4e1b 9dbf e6a8 13bf
00000100: f1b7 13bf f2a3 9c3d 5663 ae3d d67b 9ebc
00000110: 5251 d4bf 904c f53c 4a45 d2bf 5276 1e3f
00000120: 5373 71bf f779 90bf 4fae bc3c 5a3f 14bf
00000130: 07e2 91c0 c2ef 0c3e 18b9 4dbe 0bec d43f
00000140: 259e dabe b99a 743d f1ab 6f3e 1ec9 aac0
00000150: 3444 a5c0 5492 f03d 88f9 ee3e ce02 58c0
00000160: 2ff2 95c0 640e 2b3f 4e5e a03e 2e09 e9bf
00000170: c9a3 debf f0e3 f3bc 320f 0fbd 29cd edbf
00000180: 65bb 983e e3a1 e5bf 9368 ebbc 2282 e0c0
00000190: bd89 45c0 bc0b fd3d 979b 053f aa98 89bf
000001a0: a9e4 e8bf 9f00 043f 46b2 3dbe 57a9 09c0
000001b0: 74ac 3ec0 a860 853d 5475 90bf d2f6 533f
000001c0: d637 74c0 7720 46c0 f9fd 9d3e a290 c6bf
000001d0: 9f6a 26c0 9ce9 89be ed05 873f 61f7 30c0
000001e0: 5e80 84c0 2aa5 75be 2f10 6bbc 6a92 6dc0
000001f0: ace0 2fc0 1067 c9bd 398a 303f 537d 1cc0
00000200: 7bf7 c53d a539 b23e 3ce7 8b3e 18d3 84c0
00000210: 6356 71c0 78aa 48be dc2f 2fbf 12f3 a6be
00000220: 46d2 5a3f 3721 3c3d 35fe a7be d62c 4bc0
00000230: 3db3 8bc0 49c1 15be e52d b7be 16be 71c0
00000240: 843a 1e3d 952b 7f3d 11e7 91be 876d 55c0
00000250: b5d1 a0c0 2f20 923e 7484 383d 59b7 81bf
00000260: 3111 08c0 aae0 443f 3965 433d effd 64c0
00000270: 60af d6bf e9ca a13e 3cab b4be 289e 43c0
00000280: 987c 573a f49a 2f3e 9fc5 a43e 9ede f0bf
00000290: ef6e 07c0 761c 4c3e 1cde 05bf 0fe5 54bf
000002a0: b36b 373f 5bdf 55c0 df40 77be 7c5e a3bf
000002b0: a3ea e1bf 0ce6 cf3d 787a 543e c00f 46c0
000002c0: b612 7ec0 40e0 d63e ef36 1a3e 70dc 76c0
000002d0: 9bdf 13c0 349b 80bd 8993 b93e 742f 5bbf
000002e0: 2e5a 28c0 a0d8 99bf 3cbb a73d 068a 76c0
000002f0: 286d 39c0 00a6 013d 1841 663f fb29 4dc0
00000300: cd3b 273f 87dd 6dc0 65f5 f03d 4307 bfbf
00000310: 4323 a7c0 6805 6bbd 2477 0d3f 7fa4 6cc0
00000320: bb37 0ebf 786a 4a3f 34be 9dbd b3ae 8dc0
00000330: e8e9 7ac0 81b9 55be 83bf a2bf c770 30c0
00000340: 138b 98bf d719 463f 5f40 eb3c 8f7c 43c0
00000350: 91e8 fcbf 6152 af3e e2c4 eabf 9176 73be
00000360: 08cb 953f 557c d8bf 29b6 5b3e 71c6 86be
00000370: 19a8 53c0 947c 063e cd47 f9be 0b3a 4cc0
00000380: 013d 43bf 65e3 033f 1c0b 493e 053f a9c0
00000390: 7d42 59c0 569f 253e 0016 07bc 49a2 ecbf
000003a0: a647 14c0 57f9 643f 7707 8dbe 0a5f 67bf
000003b0: 5e72 c2bf a20b 273e eec9 38c0 a000 07c0
000003c0: 8263 87c0 4b53 893f 7cd3 85bd 5b23 81c0
000003d0: a0ac 85bf bea5 5a3e 9d12 adbf c107 e6bf
000003e0: 7dae 70c0 71a1 0c3f 1c78 b4be 0557 29c0
000003f0: 6ba8 bfbf fb19 75be 0182 c0be cb95 e13e

l3.bias f4 [81]
0.0030114888 -0.118864864 -0.60554487 -0.6416212 -0.3772365 -0.005337356 -0.5925973 0.2016173
-0.871014 0.48945957 0.26783994 0.5349692 1.2004693 -0.18216412 0.20458657 0.0404066
-0.33638793 0.96888274 0.744361 -0.7533792 -1.0777947 -0.58193934 -0.2563871 0.6387195
0.13277058 0.44742697 -0.1037371 0.54258 1.0292602 -0.20534186 1.0519985 0.73744726
-0.09909511 0.3256123 -0.10841415 -0.77896506 -0.15316981 -0.39987862 0.42373985 0.105696864
-0.049995992 0.6709041 -0.35701337 -0.2865537 0.37640578 0.07369355 0.47690544 0.19135457
-0.5694746 -0.2626481 -0.26450214 -0.5619651 0.2767554 -1.7532732 -0.35618022 0.2826765
-0.089277364 0.3982049 0.24820063 -0.34566084 0.008623908 -0.5575122 0.73486316 0.27921477
0.28129658 0.26316878 -0.39349204 -1.5657374 -0.2567227 -0.9873976 -0.61971503 -1.0001748
0.9508725 -0.24726486 -0.17904891 -0.9171961 0.01334035 -1.387536 -0.325733 -0.89767015
-0.7223526
00000000: 665c 453b 6c6f f3bd fd04 1bbf 4941 24bf
00000010: 2425 c1be fde4 aebb 75b4 17bf c474 4e3e
00000020: c6fa 5ebf 729a fa3e 5122 893e bef3 083f
00000030: faa8 993f 3b89 3abe 247f 513e 6481 253d
00000040: 0a3b acbe b308 783f 718e 3e3f 76dd 40bf
00000050: 2df5 89bf faf9 14bf 2c45 83be 1f83 233f
00000060: 03f5 073e 2615 e53e 1e74 d4bd 86e6 0a3f
00000070: ccbe 833f 2345 52be e3a7 863f 58c9 3c3f
00000080: 61f2 cabd a8b6 a63e 3d08 debd 416a 47bf
00000090: 8cd8 1cbe e4bc ccbe 6ef4 d83e 9977 d83d
000000a0: 99c8 4cbd 5fc0 2b3f 75ca b6be 2bb7 92be
000000b0: 42b8 c03e a5ec 963d f32c f43e 74f2 433e
000000c0: 16c9 11bf d079 86be d36c 87be f2dc 0fbf
000000d0: e2b2 8d3e 426b e0bf 415d b6be f9ba 903e
000000e0: 0dd7 b6bd 83e1 cb3e 4e28 7e3e 75fa b0be
000000f0: 4b4b 0d3c 1fb9 0ebf fe1f 3c3f 3df5 8e3e
00000100: 1b06 903e 0fbe 863e ca77 c9be 156a c8bf
00000110: 2871 83be 17c6 7cbf a5a5 1ebf ba05 80bf
00000120: 616c 733f 0033 7dbe 9958 37be 5dcd 6abf
00000130: 7c91 5a3c c89a b1bf 7ac6 a6be b6cd 65bf
00000140: 1aec 38bf
